…
2025-07-15 13:20:25.048	g3084:0	train:191	INFO	Total number of parameters: 58,006,016
2025-07-15 13:20:25.049	g3084:0	train:192	INFO	Number of non-embedding parameters: 38,525,440
2025-07-15 13:20:25.050	g3084:0	train:195	INFO	Peak GPU Memory (MB) after FSDP: 234
2025-07-15 13:20:25.051	g3084:0	train:196	INFO	Model:
2025-07-15 13:20:25.051	g3084:0	train:197	INFO	FSDPMolmo(
  (transformer): Llm(
    (blocks): ModuleList(
      (0): FSDPCheckpointWrapper(
        (_checkpoint_wrapped_module): OLMoSequentialBlock(
          (dropout): Dropout(p=0.1, inplace=False)
          (act): SwiGLU()
          (attn_out): Linear(in_features=128, out_features=128, bias=True)
          (ff_out): Linear(in_features=256, out_features=128, bias=True)
          (rotary_emb): RotaryEmbedding()
          (attn_norm): LayerNorm()
          (ff_norm): LayerNorm()
          (att_proj): Linear(in_features=128, out_features=384, bias=True)
          (ff_proj): Linear(in_features=128, out_features=512, bias=True)
        )
      )
    )
    (ln_f): FSDPLayerNorm()
    (emb_drop): Dropout(p=0.1, inplace=False)
    (wte): FSDPEmbedding()
    (ff_out): FSDPLinear(in_features=128, out_features=152192, bias=True)
  )
  (vision_backbone): FSDPMolmoVisionBackbone(
    (image_pooling_2d): FSDPCheckpointWrapper(
      (_checkpoint_wrapped_module): ViTMultiHeadDotProductAttention(
        (wq): Linear(in_features=1024, out_features=1024, bias=True)
        (wk): Linear(in_features=1024, out_features=1024, bias=True)
        (wv): Linear(in_features=1024, out_features=1024, bias=True)
        (wo): Linear(in_features=1024, out_features=1024, bias=True)
        (residual_dropout): Dropout(p=0.0, inplace=False)
      )
    )
    (image_projector): FSDPCheckpointWrapper(
      (_checkpoint_wrapped_module): ImageProjectorMLP(
        (w1): Linear(in_features=1024, out_features=256, bias=False)
        (w2): Linear(in_features=256, out_features=128, bias=False)
        (w3): Linear(in_features=1024, out_features=256, bias=False)
        (act): LlamaSwiGLU()
        (dropout): Dropout(p=0.0, inplace=False)
      )
    )
    (image_feature_dropout): Dropout(p=0.0, inplace=False)
    (image_vit): FSDPVisionTransformer(
      (patch_embedding): Linear(in_features=588, out_features=1024, bias=False)
      (pre_ln): LayerNorm((1024,), eps=1e-05, elementwise_affine=True)
      (transformer): BlockCollection(
        (resblocks): ModuleList(
          (0): FSDPResidualAttentionBlock(
            (attention): ViTMultiHeadDotProductAttention(
              (wq): Linear(in_features=1024, out_features=1024, bias=True)
              (wk): Linear(in_features=1024, out_features=1024, bias=True)
              (wv): Linear(in_features=1024, out_features=1024, bias=True)
              (wo): Linear(in_features=1024, out_features=1024, bias=True)
              (residual_dropout): Dropout(p=0.0, inplace=False)
            )
            (feed_forward): ViTMLP(
              (w1): Linear(in_features=1024, out_features=4096, bias=True)
              (act): GELUActivation()
              (w2): Linear(in_features=4096, out_features=1024, bias=True)
            )
            (attention_norm): LayerNorm((1024,), eps=1e-05, elementwise_affine=True)
            (ffn_norm): LayerNorm((1024,), eps=1e-05, elementwise_affine=True)
          )
        )
      )
    )
  )
  (vision_encoder_head): Linear(in_features=700, out_features=128, bias=False)
  (vision_decoder_head): Linear(in_features=128, out_features=700, bias=False)
)
2025-07-15 13:20:25.062	g3084:0	olmo.train.optim:178	INFO	Constructing optimizer with 4 param groups
2025-07-15 13:20:25.062	g3084:0	olmo.data.data_loader:197	INFO	Loading train dataset chart_qa/train
2025-07-15 13:20:25.063	g3084:0	root:438	INFO	Loading chartqa data from /gscratch/krishna/mahtab/Umolmo/Data/torch_datasets/chartqa/train/train_human.json
…
2025-07-16 14:51:04.937	g3084:0	train:191	INFO	Total number of parameters: 58,088,960
2025-07-16 14:51:04.938	g3084:0	train:192	INFO	Number of non-embedding parameters: 38,608,384
2025-07-16 14:51:04.939	g3084:0	train:195	INFO	Peak GPU Memory (MB) after FSDP: 234
2025-07-16 14:51:04.939	g3084:0	train:196	INFO	Model:
2025-07-16 14:51:04.939	g3084:0	train:197	INFO	FSDPMolmo(
  (transformer): Llm(
    (blocks): ModuleList(
      (0): FSDPCheckpointWrapper(
        (_checkpoint_wrapped_module): OLMoSequentialBlock(
          (dropout): Dropout(p=0.1, inplace=False)
          (act): SwiGLU()
          (attn_out): Linear(in_features=128, out_features=128, bias=True)
          (ff_out): Linear(in_features=256, out_features=128, bias=True)
          (rotary_emb): RotaryEmbedding()
          (attn_norm): LayerNorm()
          (ff_norm): LayerNorm()
          (att_proj): Linear(in_features=128, out_features=384, bias=True)
          (ff_proj): Linear(in_features=128, out_features=512, bias=True)
        )
      )
    )
    (ln_f): FSDPLayerNorm()
    (emb_drop): Dropout(p=0.1, inplace=False)
    (wte): FSDPEmbedding()
    (ff_out): FSDPLinear(in_features=128, out_features=152192, bias=True)
  )
  (vision_backbone): FSDPMolmoVisionBackbone(
    (image_pooling_2d): FSDPCheckpointWrapper(
      (_checkpoint_wrapped_module): ViTMultiHeadDotProductAttention(
        (wq): Linear(in_features=1024, out_features=1024, bias=True)
        (wk): Linear(in_features=1024, out_features=1024, bias=True)
        (wv): Linear(in_features=1024, out_features=1024, bias=True)
        (wo): Linear(in_features=1024, out_features=1024, bias=True)
        (residual_dropout): Dropout(p=0.0, inplace=False)
      )
    )
    (image_projector): FSDPCheckpointWrapper(
      (_checkpoint_wrapped_module): ImageProjectorMLP(
        (w1): Linear(in_features=1024, out_features=256, bias=False)
        (w2): Linear(in_features=256, out_features=128, bias=False)
        (w3): Linear(in_features=1024, out_features=256, bias=False)
        (act): LlamaSwiGLU()
        (dropout): Dropout(p=0.0, inplace=False)
      )
    )
    (image_feature_dropout): Dropout(p=0.0, inplace=False)
    (image_vit): FSDPVisionTransformer(
      (patch_embedding): Linear(in_features=588, out_features=1024, bias=False)
      (pre_ln): LayerNorm((1024,), eps=1e-05, elementwise_affine=True)
      (transformer): BlockCollection(
        (resblocks): ModuleList(
          (0): FSDPResidualAttentionBlock(
            (attention): ViTMultiHeadDotProductAttention(
              (wq): Linear(in_features=1024, out_features=1024, bias=True)
              (wk): Linear(in_features=1024, out_features=1024, bias=True)
              (wv): Linear(in_features=1024, out_features=1024, bias=True)
              (wo): Linear(in_features=1024, out_features=1024, bias=True)
              (residual_dropout): Dropout(p=0.0, inplace=False)
            )
            (feed_forward): ViTMLP(
              (w1): Linear(in_features=1024, out_features=4096, bias=True)
              (act): GELUActivation()
              (w2): Linear(in_features=4096, out_features=1024, bias=True)
            )
            (attention_norm): LayerNorm((1024,), eps=1e-05, elementwise_affine=True)
            (ffn_norm): LayerNorm((1024,), eps=1e-05, elementwise_affine=True)
          )
        )
      )
    )
  )
  (vision_encoder_head): Linear(in_features=1024, out_features=128, bias=False)
  (vision_decoder_head): Linear(in_features=128, out_features=1024, bias=False)
)
2025-07-16 14:51:04.950	g3084:0	olmo.train.optim:178	INFO	Constructing optimizer with 4 param groups
2025-07-16 14:51:04.951	g3084:0	olmo.data.data_loader:197	INFO	Loading train dataset depth/train
2025-07-16 14:51:04.951	g3084:0	root:34	INFO	Loading depth data from /gscratch/krishna/mahtab/Umolmo/Data/torch_datasets/depth/train/train.json
2025-07-16 14:51:04.988	g3084:0	olmo.data.data_loader:216	INFO	Sampling rates:
…
2025-07-16 16:22:41.578	g3087:0	train:192	INFO	Number of non-embedding parameters: 7,581,760,464
2025-07-16 16:22:41.579	g3087:1	train:192	INFO	Number of non-embedding parameters: 7,581,760,464
2025-07-16 16:22:41.580	g3087:1	train:195	INFO	Peak GPU Memory (MB) after FSDP: 8178
2025-07-16 16:22:41.580	g3087:1	train:196	INFO	Model:
2025-07-16 16:22:41.580	g3087:1	train:197	INFO	FSDPMolmo(
  (transformer): Llm(
    (blocks): ModuleList(
      (0-27): 28 x FSDPCheckpointWrapper(
        (_checkpoint_wrapped_module): OLMoSequentialBlock(
          (dropout): Dropout(p=0.1, inplace=False)
          (act): SwiGLU()
          (attn_out): Linear(in_features=3584, out_features=3584, bias=False)
          (ff_out): Linear(in_features=18944, out_features=3584, bias=False)
          (rotary_emb): RotaryEmbedding()
          (attn_norm): RMSLayerNorm()
          (ff_norm): RMSLayerNorm()
          (att_proj): Linear(in_features=3584, out_features=4608, bias=True)
          (ff_proj): Linear(in_features=3584, out_features=37888, bias=False)
        )
      )
    )
    (ln_f): FSDPRMSLayerNorm()
    (emb_drop): Dropout(p=0.0, inplace=False)
    (wte): FSDPEmbedding()
    (ff_out): FSDPLinear(in_features=3584, out_features=152192, bias=False)
  )
  (vision_backbone): FSDPMolmoVisionBackbone(
    (image_pooling_2d): FSDPCheckpointWrapper(
      (_checkpoint_wrapped_module): ViTMultiHeadDotProductAttention(
        (wq): Linear(in_features=2304, out_features=1152, bias=True)
        (wk): Linear(in_features=2304, out_features=1152, bias=True)
        (wv): Linear(in_features=2304, out_features=1152, bias=True)
        (wo): Linear(in_features=1152, out_features=1152, bias=True)
        (residual_dropout): Dropout(p=0.0, inplace=False)
      )
    )
    (image_projector): FSDPCheckpointWrapper(
      (_checkpoint_wrapped_module): ImageProjectorMLP(
        (w1): Linear(in_features=1152, out_features=18944, bias=False)
        (w2): Linear(in_features=18944, out_features=3584, bias=False)
        (w3): Linear(in_features=1152, out_features=18944, bias=False)
        (act): LlamaSwiGLU()
        (dropout): Dropout(p=0.0, inplace=False)
      )
    )
    (image_feature_dropout): Dropout(p=0.0, inplace=False)
    (image_vit): FSDPSiglipVisionTransformer(
      (patch_embedding): Linear(in_features=588, out_features=1152, bias=True)
      (transformer): BlockCollection(
        (resblocks): ModuleList(
          (0-24): 25 x FSDPCheckpointWrapper(
            (_checkpoint_wrapped_module): ResidualAttentionBlock(
              (attention): ViTMultiHeadDotProductAttention(
                (wq): Linear(in_features=1152, out_features=1152, bias=True)
                (wk): Linear(in_features=1152, out_features=1152, bias=True)
                (wv): Linear(in_features=1152, out_features=1152, bias=True)
                (wo): Linear(in_features=1152, out_features=1152, bias=True)
                (residual_dropout): Dropout(p=0.0, inplace=False)
              )
              (feed_forward): ViTMLP(
                (w1): Linear(in_features=1152, out_features=4304, bias=True)
                (act): PytorchGELUTanh()
                (w2): Linear(in_features=4304, out_features=1152, bias=True)
              )
              (attention_norm): LayerNorm((1152,), eps=1e-06, elementwise_affine=True)
              (ffn_norm): LayerNorm((1152,), eps=1e-06, elementwise_affine=True)
            )
          )
        )
      )
    )
  )
  (vision_encoder_head): Linear(in_features=1024, out_features=3584, bias=False)
  (vision_decoder_head): Linear(in_features=3584, out_features=1024, bias=False)
)
2025-07-16 16:22:41.607	g3087:1	olmo.train.optim:178	INFO	Constructing optimizer with 4 param groups
2025-07-16 16:22:41.607	g3087:1	olmo.data.data_loader:197	INFO	Loading train dataset depth/train
2025-07-16 16:22:41.608	g3087:1	root:34	INFO	Loading depth data from /gscratch/krishna/mahtab/Umolmo/Data/torch_datasets/depth/train/train.json
2025-07-16 16:22:41.640	g3087:2	train:191	INFO	Total number of parameters: 8,127,216,592
…
2025-07-16 16:22:41.643	g3087:2	train:196	INFO	Model:
2025-07-16 16:22:41.643	g3087:3	train:195	INFO	Peak GPU Memory (MB) after FSDP: 8178
2025-07-16 16:22:41.643	g3087:3	train:196	INFO	Model:
2025-07-16 16:22:41.643	g3087:0	train:195	INFO	Peak GPU Memory (MB) after FSDP: 8178
2025-07-16 16:22:41.644	g3087:0	train:196	INFO	Model:
2025-07-16 16:22:41.643	g3087:2	train:197	INFO	FSDPMolmo(
  (transformer): Llm(
    (blocks): ModuleList(
      (0-27): 28 x FSDPCheckpointWrapper(
        (_checkpoint_wrapped_module): OLMoSequentialBlock(
          (dropout): Dropout(p=0.1, inplace=False)
          (act): SwiGLU()
          (attn_out): Linear(in_features=3584, out_features=3584, bias=False)
          (ff_out): Linear(in_features=18944, out_features=3584, bias=False)
          (rotary_emb): RotaryEmbedding()
          (attn_norm): RMSLayerNorm()
          (ff_norm): RMSLayerNorm()
          (att_proj): Linear(in_features=3584, out_features=4608, bias=True)
          (ff_proj): Linear(in_features=3584, out_features=37888, bias=False)
        )
      )
    )
    (ln_f): FSDPRMSLayerNorm()
    (emb_drop): Dropout(p=0.0, inplace=False)
    (wte): FSDPEmbedding()
    (ff_out): FSDPLinear(in_features=3584, out_features=152192, bias=False)
  )
  (vision_backbone): FSDPMolmoVisionBackbone(
    (image_pooling_2d): FSDPCheckpointWrapper(
      (_checkpoint_wrapped_module): ViTMultiHeadDotProductAttention(
        (wq): Linear(in_features=2304, out_features=1152, bias=True)
        (wk): Linear(in_features=2304, out_features=1152, bias=True)
        (wv): Linear(in_features=2304, out_features=1152, bias=True)
        (wo): Linear(in_features=1152, out_features=1152, bias=True)
        (residual_dropout): Dropout(p=0.0, inplace=False)
      )
    )
    (image_projector): FSDPCheckpointWrapper(
      (_checkpoint_wrapped_module): ImageProjectorMLP(
        (w1): Linear(in_features=1152, out_features=18944, bias=False)
        (w2): Linear(in_features=18944, out_features=3584, bias=False)
        (w3): Linear(in_features=1152, out_features=18944, bias=False)
        (act): LlamaSwiGLU()
        (dropout): Dropout(p=0.0, inplace=False)
      )
    )
    (image_feature_dropout): Dropout(p=0.0, inplace=False)
    (image_vit): FSDPSiglipVisionTransformer(
      (patch_embedding): Linear(in_features=588, out_features=1152, bias=True)
      (transformer): BlockCollection(
        (resblocks): ModuleList(
          (0-24): 25 x FSDPCheckpointWrapper(
            (_checkpoint_wrapped_module): ResidualAttentionBlock(
              (attention): ViTMultiHeadDotProductAttention(
                (wq): Linear(in_features=1152, out_features=1152, bias=True)
                (wk): Linear(in_features=1152, out_features=1152, bias=True)
                (wv): Linear(in_features=1152, out_features=1152, bias=True)
                (wo): Linear(in_features=1152, out_features=1152, bias=True)
                (residual_dropout): Dropout(p=0.0, inplace=False)
              )
              (feed_forward): ViTMLP(
                (w1): Linear(in_features=1152, out_features=4304, bias=True)
                (act): PytorchGELUTanh()
                (w2): Linear(in_features=4304, out_features=1152, bias=True)
              )
              (attention_norm): LayerNorm((1152,), eps=1e-06, elementwise_affine=True)
              (ffn_norm): LayerNorm((1152,), eps=1e-06, elementwise_affine=True)
            )
          )
        )
      )
    )
  )
  (vision_encoder_head): Linear(in_features=1024, out_features=3584, bias=False)
  (vision_decoder_head): Linear(in_features=3584, out_features=1024, bias=False)
)
2025-07-16 16:22:41.643	g3087:3	train:197	INFO	FSDPMolmo(
  (transformer): Llm(
    (blocks): ModuleList(
      (0-27): 28 x FSDPCheckpointWrapper(
        (_checkpoint_wrapped_module): OLMoSequentialBlock(
          (dropout): Dropout(p=0.1, inplace=False)
          (act): SwiGLU()
          (attn_out): Linear(in_features=3584, out_features=3584, bias=False)
          (ff_out): Linear(in_features=18944, out_features=3584, bias=False)
          (rotary_emb): RotaryEmbedding()
          (attn_norm): RMSLayerNorm()
          (ff_norm): RMSLayerNorm()
          (att_proj): Linear(in_features=3584, out_features=4608, bias=True)
          (ff_proj): Linear(in_features=3584, out_features=37888, bias=False)
        )
      )
    )
    (ln_f): FSDPRMSLayerNorm()
    (emb_drop): Dropout(p=0.0, inplace=False)
    (wte): FSDPEmbedding()
    (ff_out): FSDPLinear(in_features=3584, out_features=152192, bias=False)
  )
  (vision_backbone): FSDPMolmoVisionBackbone(
    (image_pooling_2d): FSDPCheckpointWrapper(
      (_checkpoint_wrapped_module): ViTMultiHeadDotProductAttention(
        (wq): Linear(in_features=2304, out_features=1152, bias=True)
        (wk): Linear(in_features=2304, out_features=1152, bias=True)
        (wv): Linear(in_features=2304, out_features=1152, bias=True)
        (wo): Linear(in_features=1152, out_features=1152, bias=True)
        (residual_dropout): Dropout(p=0.0, inplace=False)
      )
    )
    (image_projector): FSDPCheckpointWrapper(
      (_checkpoint_wrapped_module): ImageProjectorMLP(
        (w1): Linear(in_features=1152, out_features=18944, bias=False)
        (w2): Linear(in_features=18944, out_features=3584, bias=False)
        (w3): Linear(in_features=1152, out_features=18944, bias=False)
        (act): LlamaSwiGLU()
        (dropout): Dropout(p=0.0, inplace=False)
      )
    )
    (image_feature_dropout): Dropout(p=0.0, inplace=False)
    (image_vit): FSDPSiglipVisionTransformer(
      (patch_embedding): Linear(in_features=588, out_features=1152, bias=True)
      (transformer): BlockCollection(
        (resblocks): ModuleList(
          (0-24): 25 x FSDPCheckpointWrapper(
            (_checkpoint_wrapped_module): ResidualAttentionBlock(
              (attention): ViTMultiHeadDotProductAttention(
                (wq): Linear(in_features=1152, out_features=1152, bias=True)
                (wk): Linear(in_features=1152, out_features=1152, bias=True)
                (wv): Linear(in_features=1152, out_features=1152, bias=True)
                (wo): Linear(in_features=1152, out_features=1152, bias=True)
                (residual_dropout): Dropout(p=0.0, inplace=False)
              )
              (feed_forward): ViTMLP(
                (w1): Linear(in_features=1152, out_features=4304, bias=True)
                (act): PytorchGELUTanh()
                (w2): Linear(in_features=4304, out_features=1152, bias=True)
              )
              (attention_norm): LayerNorm((1152,), eps=1e-06, elementwise_affine=True)
              (ffn_norm): LayerNorm((1152,), eps=1e-06, elementwise_affine=True)
            )
          )
        )
      )
    )
  )
  (vision_encoder_head): Linear(in_features=1024, out_features=3584, bias=False)
  (vision_decoder_head): Linear(in_features=3584, out_features=1024, bias=False)
)
2025-07-16 16:22:41.655	g3087:2	olmo.train.optim:178	INFO	Constructing optimizer with 4 param groups
2025-07-16 16:22:41.656	g3087:3	olmo.train.optim:178	INFO	Constructing optimizer with 4 param groups
2025-07-16 16:22:41.644	g3087:0	train:197	INFO	FSDPMolmo(
  (transformer): Llm(
    (blocks): ModuleList(
      (0-27): 28 x FSDPCheckpointWrapper(
        (_checkpoint_wrapped_module): OLMoSequentialBlock(
          (dropout): Dropout(p=0.1, inplace=False)
          (act): SwiGLU()
          (attn_out): Linear(in_features=3584, out_features=3584, bias=False)
          (ff_out): Linear(in_features=18944, out_features=3584, bias=False)
          (rotary_emb): RotaryEmbedding()
          (attn_norm): RMSLayerNorm()
          (ff_norm): RMSLayerNorm()
          (att_proj): Linear(in_features=3584, out_features=4608, bias=True)
          (ff_proj): Linear(in_features=3584, out_features=37888, bias=False)
        )
      )
    )
    (ln_f): FSDPRMSLayerNorm()
    (emb_drop): Dropout(p=0.0, inplace=False)
    (wte): FSDPEmbedding()
    (ff_out): FSDPLinear(in_features=3584, out_features=152192, bias=False)
  )
  (vision_backbone): FSDPMolmoVisionBackbone(
    (image_pooling_2d): FSDPCheckpointWrapper(
      (_checkpoint_wrapped_module): ViTMultiHeadDotProductAttention(
        (wq): Linear(in_features=2304, out_features=1152, bias=True)
        (wk): Linear(in_features=2304, out_features=1152, bias=True)
        (wv): Linear(in_features=2304, out_features=1152, bias=True)
        (wo): Linear(in_features=1152, out_features=1152, bias=True)
        (residual_dropout): Dropout(p=0.0, inplace=False)
      )
    )
    (image_projector): FSDPCheckpointWrapper(
      (_checkpoint_wrapped_module): ImageProjectorMLP(
        (w1): Linear(in_features=1152, out_features=18944, bias=False)
        (w2): Linear(in_features=18944, out_features=3584, bias=False)
        (w3): Linear(in_features=1152, out_features=18944, bias=False)
        (act): LlamaSwiGLU()
        (dropout): Dropout(p=0.0, inplace=False)
      )
    )
    (image_feature_dropout): Dropout(p=0.0, inplace=False)
    (image_vit): FSDPSiglipVisionTransformer(
      (patch_embedding): Linear(in_features=588, out_features=1152, bias=True)
      (transformer): BlockCollection(
        (resblocks): ModuleList(
          (0-24): 25 x FSDPCheckpointWrapper(
            (_checkpoint_wrapped_module): ResidualAttentionBlock(
              (attention): ViTMultiHeadDotProductAttention(
                (wq): Linear(in_features=1152, out_features=1152, bias=True)
                (wk): Linear(in_features=1152, out_features=1152, bias=True)
                (wv): Linear(in_features=1152, out_features=1152, bias=True)
                (wo): Linear(in_features=1152, out_features=1152, bias=True)
                (residual_dropout): Dropout(p=0.0, inplace=False)
              )
              (feed_forward): ViTMLP(
                (w1): Linear(in_features=1152, out_features=4304, bias=True)
                (act): PytorchGELUTanh()
                (w2): Linear(in_features=4304, out_features=1152, bias=True)
              )
              (attention_norm): LayerNorm((1152,), eps=1e-06, elementwise_affine=True)
              (ffn_norm): LayerNorm((1152,), eps=1e-06, elementwise_affine=True)
            )
          )
        )
      )
    )
  )
  (vision_encoder_head): Linear(in_features=1024, out_features=3584, bias=False)
  (vision_decoder_head): Linear(in_features=3584, out_features=1024, bias=False)
)
2025-07-16 16:22:41.657	g3087:2	olmo.data.data_loader:197	INFO	Loading train dataset depth/train
2025-07-16 16:22:41.657	g3087:2	root:34	INFO	Loading depth data from /gscratch/krishna/mahtab/Umolmo/Data/torch_datasets/depth/train/train.json
2025-07-16 16:22:41.657	g3087:3	olmo.data.data_loader:197	INFO	Loading train dataset depth/train
2025-07-16 16:22:41.657	g3087:3	root:34	INFO	Loading depth data from /gscratch/krishna/mahtab/Umolmo/Data/torch_datasets/depth/train/train.json
…
2025-07-16 18:30:06.695	g3086:1	train:195	INFO	Peak GPU Memory (MB) after FSDP: 8177
2025-07-16 18:30:06.695	g3086:1	train:196	INFO	Model:
2025-07-16 18:30:06.696	g3086:2	train:195	INFO	Peak GPU Memory (MB) after FSDP: 8177
2025-07-16 18:30:06.696	g3086:2	train:196	INFO	Model:
2025-07-16 18:30:06.697	g3086:0	train:192	INFO	Number of non-embedding parameters: 7,581,301,712
2025-07-16 18:30:06.695	g3086:1	train:197	INFO	FSDPMolmo(
  (transformer): Llm(
    (blocks): ModuleList(
      (0-27): 28 x FSDPCheckpointWrapper(
        (_checkpoint_wrapped_module): OLMoSequentialBlock(
          (dropout): Dropout(p=0.1, inplace=False)
          (act): SwiGLU()
          (attn_out): Linear(in_features=3584, out_features=3584, bias=False)
          (ff_out): Linear(in_features=18944, out_features=3584, bias=False)
          (rotary_emb): RotaryEmbedding()
          (attn_norm): RMSLayerNorm()
          (ff_norm): RMSLayerNorm()
          (att_proj): Linear(in_features=3584, out_features=4608, bias=True)
          (ff_proj): Linear(in_features=3584, out_features=37888, bias=False)
        )
      )
    )
    (ln_f): FSDPRMSLayerNorm()
    (emb_drop): Dropout(p=0.0, inplace=False)
    (wte): FSDPEmbedding()
    (ff_out): FSDPLinear(in_features=3584, out_features=152064, bias=False)
  )
  (vision_backbone): FSDPMolmoVisionBackbone(
    (image_pooling_2d): FSDPCheckpointWrapper(
      (_checkpoint_wrapped_module): ViTMultiHeadDotProductAttention(
        (wq): Linear(in_features=2304, out_features=1152, bias=True)
        (wk): Linear(in_features=2304, out_features=1152, bias=True)
        (wv): Linear(in_features=2304, out_features=1152, bias=True)
        (wo): Linear(in_features=1152, out_features=1152, bias=True)
        (residual_dropout): Dropout(p=0.0, inplace=False)
      )
    )
    (image_projector): FSDPCheckpointWrapper(
      (_checkpoint_wrapped_module): ImageProjectorMLP(
        (w1): Linear(in_features=1152, out_features=18944, bias=False)
        (w2): Linear(in_features=18944, out_features=3584, bias=False)
        (w3): Linear(in_features=1152, out_features=18944, bias=False)
        (act): LlamaSwiGLU()
        (dropout): Dropout(p=0.0, inplace=False)
      )
    )
    (image_feature_dropout): Dropout(p=0.0, inplace=False)
    (image_vit): FSDPSiglipVisionTransformer(
      (patch_embedding): Linear(in_features=588, out_features=1152, bias=True)
      (transformer): BlockCollection(
        (resblocks): ModuleList(
          (0-24): 25 x FSDPCheckpointWrapper(
            (_checkpoint_wrapped_module): ResidualAttentionBlock(
              (attention): ViTMultiHeadDotProductAttention(
                (wq): Linear(in_features=1152, out_features=1152, bias=True)
                (wk): Linear(in_features=1152, out_features=1152, bias=True)
                (wv): Linear(in_features=1152, out_features=1152, bias=True)
                (wo): Linear(in_features=1152, out_features=1152, bias=True)
                (residual_dropout): Dropout(p=0.0, inplace=False)
              )
              (feed_forward): ViTMLP(
                (w1): Linear(in_features=1152, out_features=4304, bias=True)
                (act): PytorchGELUTanh()
                (w2): Linear(in_features=4304, out_features=1152, bias=True)
              )
              (attention_norm): LayerNorm((1152,), eps=1e-06, elementwise_affine=True)
              (ffn_norm): LayerNorm((1152,), eps=1e-06, elementwise_affine=True)
            )
          )
        )
      )
    )
  )
  (vision_encoder_head): Linear(in_features=1024, out_features=3584, bias=False)
  (vision_decoder_head): Linear(in_features=3584, out_features=1024, bias=False)
)
2025-07-16 18:30:06.698	g3086:3	train:191	INFO	Total number of parameters: 8,126,757,840
2025-07-16 18:30:06.696	g3086:2	train:197	INFO	FSDPMolmo(
  (transformer): Llm(
    (blocks): ModuleList(
      (0-27): 28 x FSDPCheckpointWrapper(
        (_checkpoint_wrapped_module): OLMoSequentialBlock(
          (dropout): Dropout(p=0.1, inplace=False)
          (act): SwiGLU()
          (attn_out): Linear(in_features=3584, out_features=3584, bias=False)
          (ff_out): Linear(in_features=18944, out_features=3584, bias=False)
          (rotary_emb): RotaryEmbedding()
          (attn_norm): RMSLayerNorm()
          (ff_norm): RMSLayerNorm()
          (att_proj): Linear(in_features=3584, out_features=4608, bias=True)
          (ff_proj): Linear(in_features=3584, out_features=37888, bias=False)
        )
      )
    )
    (ln_f): FSDPRMSLayerNorm()
    (emb_drop): Dropout(p=0.0, inplace=False)
    (wte): FSDPEmbedding()
    (ff_out): FSDPLinear(in_features=3584, out_features=152064, bias=False)
  )
  (vision_backbone): FSDPMolmoVisionBackbone(
    (image_pooling_2d): FSDPCheckpointWrapper(
      (_checkpoint_wrapped_module): ViTMultiHeadDotProductAttention(
        (wq): Linear(in_features=2304, out_features=1152, bias=True)
        (wk): Linear(in_features=2304, out_features=1152, bias=True)
        (wv): Linear(in_features=2304, out_features=1152, bias=True)
        (wo): Linear(in_features=1152, out_features=1152, bias=True)
        (residual_dropout): Dropout(p=0.0, inplace=False)
      )
    )
    (image_projector): FSDPCheckpointWrapper(
      (_checkpoint_wrapped_module): ImageProjectorMLP(
        (w1): Linear(in_features=1152, out_features=18944, bias=False)
        (w2): Linear(in_features=18944, out_features=3584, bias=False)
        (w3): Linear(in_features=1152, out_features=18944, bias=False)
        (act): LlamaSwiGLU()
        (dropout): Dropout(p=0.0, inplace=False)
      )
    )
    (image_feature_dropout): Dropout(p=0.0, inplace=False)
    (image_vit): FSDPSiglipVisionTransformer(
      (patch_embedding): Linear(in_features=588, out_features=1152, bias=True)
      (transformer): BlockCollection(
        (resblocks): ModuleList(
          (0-24): 25 x FSDPCheckpointWrapper(
            (_checkpoint_wrapped_module): ResidualAttentionBlock(
              (attention): ViTMultiHeadDotProductAttention(
                (wq): Linear(in_features=1152, out_features=1152, bias=True)
                (wk): Linear(in_features=1152, out_features=1152, bias=True)
                (wv): Linear(in_features=1152, out_features=1152, bias=True)
                (wo): Linear(in_features=1152, out_features=1152, bias=True)
                (residual_dropout): Dropout(p=0.0, inplace=False)
              )
              (feed_forward): ViTMLP(
                (w1): Linear(in_features=1152, out_features=4304, bias=True)
                (act): PytorchGELUTanh()
                (w2): Linear(in_features=4304, out_features=1152, bias=True)
              )
              (attention_norm): LayerNorm((1152,), eps=1e-06, elementwise_affine=True)
              (ffn_norm): LayerNorm((1152,), eps=1e-06, elementwise_affine=True)
            )
          )
        )
      )
    )
  )
  (vision_encoder_head): Linear(in_features=1024, out_features=3584, bias=False)
  (vision_decoder_head): Linear(in_features=3584, out_features=1024, bias=False)
)
2025-07-16 18:30:06.718	g3086:3	train:192	INFO	Number of non-embedding parameters: 7,581,301,712
2025-07-16 18:30:06.719	g3086:3	train:195	INFO	Peak GPU Memory (MB) after FSDP: 8177
2025-07-16 18:30:06.719	g3086:3	train:196	INFO	Model:
2025-07-16 18:30:06.719	g3086:0	train:195	INFO	Peak GPU Memory (MB) after FSDP: 8177
2025-07-16 18:30:06.719	g3086:0	train:196	INFO	Model:
2025-07-16 18:30:06.719	g3086:3	train:197	INFO	FSDPMolmo(
  (transformer): Llm(
    (blocks): ModuleList(
      (0-27): 28 x FSDPCheckpointWrapper(
        (_checkpoint_wrapped_module): OLMoSequentialBlock(
          (dropout): Dropout(p=0.1, inplace=False)
          (act): SwiGLU()
          (attn_out): Linear(in_features=3584, out_features=3584, bias=False)
          (ff_out): Linear(in_features=18944, out_features=3584, bias=False)
          (rotary_emb): RotaryEmbedding()
          (attn_norm): RMSLayerNorm()
          (ff_norm): RMSLayerNorm()
          (att_proj): Linear(in_features=3584, out_features=4608, bias=True)
          (ff_proj): Linear(in_features=3584, out_features=37888, bias=False)
        )
      )
    )
    (ln_f): FSDPRMSLayerNorm()
    (emb_drop): Dropout(p=0.0, inplace=False)
    (wte): FSDPEmbedding()
    (ff_out): FSDPLinear(in_features=3584, out_features=152064, bias=False)
  )
  (vision_backbone): FSDPMolmoVisionBackbone(
    (image_pooling_2d): FSDPCheckpointWrapper(
      (_checkpoint_wrapped_module): ViTMultiHeadDotProductAttention(
        (wq): Linear(in_features=2304, out_features=1152, bias=True)
        (wk): Linear(in_features=2304, out_features=1152, bias=True)
        (wv): Linear(in_features=2304, out_features=1152, bias=True)
        (wo): Linear(in_features=1152, out_features=1152, bias=True)
        (residual_dropout): Dropout(p=0.0, inplace=False)
      )
    )
    (image_projector): FSDPCheckpointWrapper(
      (_checkpoint_wrapped_module): ImageProjectorMLP(
        (w1): Linear(in_features=1152, out_features=18944, bias=False)
        (w2): Linear(in_features=18944, out_features=3584, bias=False)
        (w3): Linear(in_features=1152, out_features=18944, bias=False)
        (act): LlamaSwiGLU()
        (dropout): Dropout(p=0.0, inplace=False)
      )
    )
    (image_feature_dropout): Dropout(p=0.0, inplace=False)
    (image_vit): FSDPSiglipVisionTransformer(
      (patch_embedding): Linear(in_features=588, out_features=1152, bias=True)
      (transformer): BlockCollection(
        (resblocks): ModuleList(
          (0-24): 25 x FSDPCheckpointWrapper(
            (_checkpoint_wrapped_module): ResidualAttentionBlock(
              (attention): ViTMultiHeadDotProductAttention(
                (wq): Linear(in_features=1152, out_features=1152, bias=True)
                (wk): Linear(in_features=1152, out_features=1152, bias=True)
                (wv): Linear(in_features=1152, out_features=1152, bias=True)
                (wo): Linear(in_features=1152, out_features=1152, bias=True)
                (residual_dropout): Dropout(p=0.0, inplace=False)
              )
              (feed_forward): ViTMLP(
                (w1): Linear(in_features=1152, out_features=4304, bias=True)
                (act): PytorchGELUTanh()
                (w2): Linear(in_features=4304, out_features=1152, bias=True)
              )
              (attention_norm): LayerNorm((1152,), eps=1e-06, elementwise_affine=True)
              (ffn_norm): LayerNorm((1152,), eps=1e-06, elementwise_affine=True)
            )
          )
        )
      )
    )
  )
  (vision_encoder_head): Linear(in_features=1024, out_features=3584, bias=False)
  (vision_decoder_head): Linear(in_features=3584, out_features=1024, bias=False)
)
2025-07-16 18:30:06.720	g3086:0	train:197	INFO	FSDPMolmo(
  (transformer): Llm(
    (blocks): ModuleList(
      (0-27): 28 x FSDPCheckpointWrapper(
        (_checkpoint_wrapped_module): OLMoSequentialBlock(
          (dropout): Dropout(p=0.1, inplace=False)
          (act): SwiGLU()
          (attn_out): Linear(in_features=3584, out_features=3584, bias=False)
          (ff_out): Linear(in_features=18944, out_features=3584, bias=False)
          (rotary_emb): RotaryEmbedding()
          (attn_norm): RMSLayerNorm()
          (ff_norm): RMSLayerNorm()
          (att_proj): Linear(in_features=3584, out_features=4608, bias=True)
          (ff_proj): Linear(in_features=3584, out_features=37888, bias=False)
        )
      )
    )
    (ln_f): FSDPRMSLayerNorm()
    (emb_drop): Dropout(p=0.0, inplace=False)
    (wte): FSDPEmbedding()
    (ff_out): FSDPLinear(in_features=3584, out_features=152064, bias=False)
  )
  (vision_backbone): FSDPMolmoVisionBackbone(
    (image_pooling_2d): FSDPCheckpointWrapper(
      (_checkpoint_wrapped_module): ViTMultiHeadDotProductAttention(
        (wq): Linear(in_features=2304, out_features=1152, bias=True)
        (wk): Linear(in_features=2304, out_features=1152, bias=True)
        (wv): Linear(in_features=2304, out_features=1152, bias=True)
        (wo): Linear(in_features=1152, out_features=1152, bias=True)
        (residual_dropout): Dropout(p=0.0, inplace=False)
      )
    )
    (image_projector): FSDPCheckpointWrapper(
      (_checkpoint_wrapped_module): ImageProjectorMLP(
        (w1): Linear(in_features=1152, out_features=18944, bias=False)
        (w2): Linear(in_features=18944, out_features=3584, bias=False)
        (w3): Linear(in_features=1152, out_features=18944, bias=False)
        (act): LlamaSwiGLU()
        (dropout): Dropout(p=0.0, inplace=False)
      )
    )
    (image_feature_dropout): Dropout(p=0.0, inplace=False)
    (image_vit): FSDPSiglipVisionTransformer(
      (patch_embedding): Linear(in_features=588, out_features=1152, bias=True)
      (transformer): BlockCollection(
        (resblocks): ModuleList(
          (0-24): 25 x FSDPCheckpointWrapper(
            (_checkpoint_wrapped_module): ResidualAttentionBlock(
              (attention): ViTMultiHeadDotProductAttention(
                (wq): Linear(in_features=1152, out_features=1152, bias=True)
                (wk): Linear(in_features=1152, out_features=1152, bias=True)
                (wv): Linear(in_features=1152, out_features=1152, bias=True)
                (wo): Linear(in_features=1152, out_features=1152, bias=True)
                (residual_dropout): Dropout(p=0.0, inplace=False)
              )
              (feed_forward): ViTMLP(
                (w1): Linear(in_features=1152, out_features=4304, bias=True)
                (act): PytorchGELUTanh()
                (w2): Linear(in_features=4304, out_features=1152, bias=True)
              )
              (attention_norm): LayerNorm((1152,), eps=1e-06, elementwise_affine=True)
              (ffn_norm): LayerNorm((1152,), eps=1e-06, elementwise_affine=True)
            )
          )
        )
      )
    )
  )
  (vision_encoder_head): Linear(in_features=1024, out_features=3584, bias=False)
  (vision_decoder_head): Linear(in_features=3584, out_features=1024, bias=False)
)
2025-07-16 18:30:06.724	g3086:2	olmo.train.optim:178	INFO	Constructing optimizer with 4 param groups
2025-07-16 18:30:06.724	g3086:1	olmo.train.optim:178	INFO	Constructing optimizer with 4 param groups
2025-07-16 18:30:06.745	g3086:2	olmo.data.data_loader:197	INFO	Loading train dataset depth/train
2025-07-16 18:30:06.745	g3086:1	olmo.data.data_loader:197	INFO	Loading train dataset depth/train
…
2025-07-16 18:42:22.431	g3086:1	train:192	INFO	Number of non-embedding parameters: 7,581,301,712
2025-07-16 18:42:22.431	g3086:2	train:195	INFO	Peak GPU Memory (MB) after FSDP: 8177
2025-07-16 18:42:22.432	g3086:2	train:196	INFO	Model:
2025-07-16 18:42:22.432	g3086:1	train:195	INFO	Peak GPU Memory (MB) after FSDP: 8177
2025-07-16 18:42:22.432	g3086:1	train:196	INFO	Model:
2025-07-16 18:42:22.432	g3086:2	train:197	INFO	FSDPMolmo(
  (transformer): Llm(
    (blocks): ModuleList(
      (0-27): 28 x FSDPCheckpointWrapper(
        (_checkpoint_wrapped_module): OLMoSequentialBlock(
          (dropout): Dropout(p=0.1, inplace=False)
          (act): SwiGLU()
          (attn_out): Linear(in_features=3584, out_features=3584, bias=False)
          (ff_out): Linear(in_features=18944, out_features=3584, bias=False)
          (rotary_emb): RotaryEmbedding()
          (attn_norm): RMSLayerNorm()
          (ff_norm): RMSLayerNorm()
          (att_proj): Linear(in_features=3584, out_features=4608, bias=True)
          (ff_proj): Linear(in_features=3584, out_features=37888, bias=False)
        )
      )
    )
    (ln_f): FSDPRMSLayerNorm()
    (emb_drop): Dropout(p=0.0, inplace=False)
    (wte): FSDPEmbedding()
    (ff_out): FSDPLinear(in_features=3584, out_features=152064, bias=False)
  )
  (vision_backbone): FSDPMolmoVisionBackbone(
    (image_pooling_2d): FSDPCheckpointWrapper(
      (_checkpoint_wrapped_module): ViTMultiHeadDotProductAttention(
        (wq): Linear(in_features=2304, out_features=1152, bias=True)
        (wk): Linear(in_features=2304, out_features=1152, bias=True)
        (wv): Linear(in_features=2304, out_features=1152, bias=True)
        (wo): Linear(in_features=1152, out_features=1152, bias=True)
        (residual_dropout): Dropout(p=0.0, inplace=False)
      )
    )
    (image_projector): FSDPCheckpointWrapper(
      (_checkpoint_wrapped_module): ImageProjectorMLP(
        (w1): Linear(in_features=1152, out_features=18944, bias=False)
        (w2): Linear(in_features=18944, out_features=3584, bias=False)
        (w3): Linear(in_features=1152, out_features=18944, bias=False)
        (act): LlamaSwiGLU()
        (dropout): Dropout(p=0.0, inplace=False)
      )
    )
    (image_feature_dropout): Dropout(p=0.0, inplace=False)
    (image_vit): FSDPSiglipVisionTransformer(
      (patch_embedding): Linear(in_features=588, out_features=1152, bias=True)
      (transformer): BlockCollection(
        (resblocks): ModuleList(
          (0-24): 25 x FSDPCheckpointWrapper(
            (_checkpoint_wrapped_module): ResidualAttentionBlock(
              (attention): ViTMultiHeadDotProductAttention(
                (wq): Linear(in_features=1152, out_features=1152, bias=True)
                (wk): Linear(in_features=1152, out_features=1152, bias=True)
                (wv): Linear(in_features=1152, out_features=1152, bias=True)
                (wo): Linear(in_features=1152, out_features=1152, bias=True)
                (residual_dropout): Dropout(p=0.0, inplace=False)
              )
              (feed_forward): ViTMLP(
                (w1): Linear(in_features=1152, out_features=4304, bias=True)
                (act): PytorchGELUTanh()
                (w2): Linear(in_features=4304, out_features=1152, bias=True)
              )
              (attention_norm): LayerNorm((1152,), eps=1e-06, elementwise_affine=True)
              (ffn_norm): LayerNorm((1152,), eps=1e-06, elementwise_affine=True)
            )
          )
        )
      )
    )
  )
  (vision_encoder_head): Linear(in_features=1024, out_features=3584, bias=False)
  (vision_decoder_head): Linear(in_features=3584, out_features=1024, bias=False)
)
2025-07-16 18:42:22.432	g3086:1	train:197	INFO	FSDPMolmo(
  (transformer): Llm(
    (blocks): ModuleList(
      (0-27): 28 x FSDPCheckpointWrapper(
        (_checkpoint_wrapped_module): OLMoSequentialBlock(
          (dropout): Dropout(p=0.1, inplace=False)
          (act): SwiGLU()
          (attn_out): Linear(in_features=3584, out_features=3584, bias=False)
          (ff_out): Linear(in_features=18944, out_features=3584, bias=False)
          (rotary_emb): RotaryEmbedding()
          (attn_norm): RMSLayerNorm()
          (ff_norm): RMSLayerNorm()
          (att_proj): Linear(in_features=3584, out_features=4608, bias=True)
          (ff_proj): Linear(in_features=3584, out_features=37888, bias=False)
        )
      )
    )
    (ln_f): FSDPRMSLayerNorm()
    (emb_drop): Dropout(p=0.0, inplace=False)
    (wte): FSDPEmbedding()
    (ff_out): FSDPLinear(in_features=3584, out_features=152064, bias=False)
  )
  (vision_backbone): FSDPMolmoVisionBackbone(
    (image_pooling_2d): FSDPCheckpointWrapper(
      (_checkpoint_wrapped_module): ViTMultiHeadDotProductAttention(
        (wq): Linear(in_features=2304, out_features=1152, bias=True)
        (wk): Linear(in_features=2304, out_features=1152, bias=True)
        (wv): Linear(in_features=2304, out_features=1152, bias=True)
        (wo): Linear(in_features=1152, out_features=1152, bias=True)
        (residual_dropout): Dropout(p=0.0, inplace=False)
      )
    )
    (image_projector): FSDPCheckpointWrapper(
      (_checkpoint_wrapped_module): ImageProjectorMLP(
        (w1): Linear(in_features=1152, out_features=18944, bias=False)
        (w2): Linear(in_features=18944, out_features=3584, bias=False)
        (w3): Linear(in_features=1152, out_features=18944, bias=False)
        (act): LlamaSwiGLU()
        (dropout): Dropout(p=0.0, inplace=False)
      )
    )
    (image_feature_dropout): Dropout(p=0.0, inplace=False)
    (image_vit): FSDPSiglipVisionTransformer(
      (patch_embedding): Linear(in_features=588, out_features=1152, bias=True)
      (transformer): BlockCollection(
        (resblocks): ModuleList(
          (0-24): 25 x FSDPCheckpointWrapper(
            (_checkpoint_wrapped_module): ResidualAttentionBlock(
              (attention): ViTMultiHeadDotProductAttention(
                (wq): Linear(in_features=1152, out_features=1152, bias=True)
                (wk): Linear(in_features=1152, out_features=1152, bias=True)
                (wv): Linear(in_features=1152, out_features=1152, bias=True)
                (wo): Linear(in_features=1152, out_features=1152, bias=True)
                (residual_dropout): Dropout(p=0.0, inplace=False)
              )
              (feed_forward): ViTMLP(
                (w1): Linear(in_features=1152, out_features=4304, bias=True)
                (act): PytorchGELUTanh()
                (w2): Linear(in_features=4304, out_features=1152, bias=True)
              )
              (attention_norm): LayerNorm((1152,), eps=1e-06, elementwise_affine=True)
              (ffn_norm): LayerNorm((1152,), eps=1e-06, elementwise_affine=True)
            )
          )
        )
      )
    )
  )
  (vision_encoder_head): Linear(in_features=1024, out_features=3584, bias=False)
  (vision_decoder_head): Linear(in_features=3584, out_features=1024, bias=False)
)
2025-07-16 18:42:22.443	g3086:1	olmo.train.optim:178	INFO	Constructing optimizer with 4 param groups
2025-07-16 18:42:22.443	g3086:2	olmo.train.optim:178	INFO	Constructing optimizer with 4 param groups
2025-07-16 18:42:22.444	g3086:1	olmo.data.data_loader:197	INFO	Loading train dataset depth/train
2025-07-16 18:42:22.444	g3086:1	root:34	INFO	Loading depth data from /gscratch/krishna/mahtab/Umolmo/Data/torch_datasets/depth/train/train.json
…
