…
2025-07-21 15:54:02.262	g3086:1	train:195	INFO	Peak GPU Memory (MB) after FSDP: 8177
2025-07-21 15:54:02.262	g3086:3	train:196	INFO	Model:
2025-07-21 15:54:02.262	g3086:1	train:196	INFO	Model:
2025-07-21 15:54:02.262	g3086:0	train:195	INFO	Peak GPU Memory (MB) after FSDP: 8177
2025-07-21 15:54:02.263	g3086:0	train:196	INFO	Model:
2025-07-21 15:54:02.263	g3086:1	train:197	INFO	FSDPMolmo(
  (transformer): Llm(
    (blocks): ModuleList(
      (0-27): 28 x FSDPCheckpointWrapper(
        (_checkpoint_wrapped_module): OLMoSequentialBlock(
          (dropout): Dropout(p=0.1, inplace=False)
          (act): SwiGLU()
          (attn_out): Linear(in_features=3584, out_features=3584, bias=False)
          (ff_out): Linear(in_features=18944, out_features=3584, bias=False)
          (rotary_emb): RotaryEmbedding()
          (attn_norm): RMSLayerNorm()
          (ff_norm): RMSLayerNorm()
          (att_proj): Linear(in_features=3584, out_features=4608, bias=True)
          (ff_proj): Linear(in_features=3584, out_features=37888, bias=False)
        )
      )
    )
    (ln_f): FSDPRMSLayerNorm()
    (emb_drop): Dropout(p=0.0, inplace=False)
    (wte): FSDPEmbedding()
    (ff_out): FSDPLinear(in_features=3584, out_features=152064, bias=False)
  )
  (vision_backbone): FSDPMolmoVisionBackbone(
    (image_pooling_2d): FSDPCheckpointWrapper(
      (_checkpoint_wrapped_module): ViTMultiHeadDotProductAttention(
        (wq): Linear(in_features=2304, out_features=1152, bias=True)
        (wk): Linear(in_features=2304, out_features=1152, bias=True)
        (wv): Linear(in_features=2304, out_features=1152, bias=True)
        (wo): Linear(in_features=1152, out_features=1152, bias=True)
        (residual_dropout): Dropout(p=0.0, inplace=False)
      )
    )
    (image_projector): FSDPCheckpointWrapper(
      (_checkpoint_wrapped_module): ImageProjectorMLP(
        (w1): Linear(in_features=1152, out_features=18944, bias=False)
        (w2): Linear(in_features=18944, out_features=3584, bias=False)
        (w3): Linear(in_features=1152, out_features=18944, bias=False)
        (act): LlamaSwiGLU()
        (dropout): Dropout(p=0.0, inplace=False)
      )
    )
    (image_feature_dropout): Dropout(p=0.0, inplace=False)
    (image_vit): FSDPSiglipVisionTransformer(
      (patch_embedding): Linear(in_features=588, out_features=1152, bias=True)
      (transformer): BlockCollection(
        (resblocks): ModuleList(
          (0-24): 25 x FSDPCheckpointWrapper(
            (_checkpoint_wrapped_module): ResidualAttentionBlock(
              (attention): ViTMultiHeadDotProductAttention(
                (wq): Linear(in_features=1152, out_features=1152, bias=True)
                (wk): Linear(in_features=1152, out_features=1152, bias=True)
                (wv): Linear(in_features=1152, out_features=1152, bias=True)
                (wo): Linear(in_features=1152, out_features=1152, bias=True)
                (residual_dropout): Dropout(p=0.0, inplace=False)
              )
              (feed_forward): ViTMLP(
                (w1): Linear(in_features=1152, out_features=4304, bias=True)
                (act): PytorchGELUTanh()
                (w2): Linear(in_features=4304, out_features=1152, bias=True)
              )
              (attention_norm): LayerNorm((1152,), eps=1e-06, elementwise_affine=True)
              (ffn_norm): LayerNorm((1152,), eps=1e-06, elementwise_affine=True)
            )
          )
        )
      )
    )
  )
  (vision_encoder_head): Linear(in_features=1024, out_features=3584, bias=False)
  (vision_decoder_head): Linear(in_features=3584, out_features=1024, bias=False)
)
2025-07-21 15:54:02.262	g3086:2	train:197	INFO	FSDPMolmo(
  (transformer): Llm(
    (blocks): ModuleList(
      (0-27): 28 x FSDPCheckpointWrapper(
        (_checkpoint_wrapped_module): OLMoSequentialBlock(
          (dropout): Dropout(p=0.1, inplace=False)
          (act): SwiGLU()
          (attn_out): Linear(in_features=3584, out_features=3584, bias=False)
          (ff_out): Linear(in_features=18944, out_features=3584, bias=False)
          (rotary_emb): RotaryEmbedding()
          (attn_norm): RMSLayerNorm()
          (ff_norm): RMSLayerNorm()
          (att_proj): Linear(in_features=3584, out_features=4608, bias=True)
          (ff_proj): Linear(in_features=3584, out_features=37888, bias=False)
        )
      )
    )
    (ln_f): FSDPRMSLayerNorm()
    (emb_drop): Dropout(p=0.0, inplace=False)
    (wte): FSDPEmbedding()
    (ff_out): FSDPLinear(in_features=3584, out_features=152064, bias=False)
  )
  (vision_backbone): FSDPMolmoVisionBackbone(
    (image_pooling_2d): FSDPCheckpointWrapper(
      (_checkpoint_wrapped_module): ViTMultiHeadDotProductAttention(
        (wq): Linear(in_features=2304, out_features=1152, bias=True)
        (wk): Linear(in_features=2304, out_features=1152, bias=True)
        (wv): Linear(in_features=2304, out_features=1152, bias=True)
        (wo): Linear(in_features=1152, out_features=1152, bias=True)
        (residual_dropout): Dropout(p=0.0, inplace=False)
      )
    )
    (image_projector): FSDPCheckpointWrapper(
      (_checkpoint_wrapped_module): ImageProjectorMLP(
        (w1): Linear(in_features=1152, out_features=18944, bias=False)
        (w2): Linear(in_features=18944, out_features=3584, bias=False)
        (w3): Linear(in_features=1152, out_features=18944, bias=False)
        (act): LlamaSwiGLU()
        (dropout): Dropout(p=0.0, inplace=False)
      )
    )
    (image_feature_dropout): Dropout(p=0.0, inplace=False)
    (image_vit): FSDPSiglipVisionTransformer(
      (patch_embedding): Linear(in_features=588, out_features=1152, bias=True)
      (transformer): BlockCollection(
        (resblocks): ModuleList(
          (0-24): 25 x FSDPCheckpointWrapper(
            (_checkpoint_wrapped_module): ResidualAttentionBlock(
              (attention): ViTMultiHeadDotProductAttention(
                (wq): Linear(in_features=1152, out_features=1152, bias=True)
                (wk): Linear(in_features=1152, out_features=1152, bias=True)
                (wv): Linear(in_features=1152, out_features=1152, bias=True)
                (wo): Linear(in_features=1152, out_features=1152, bias=True)
                (residual_dropout): Dropout(p=0.0, inplace=False)
              )
              (feed_forward): ViTMLP(
                (w1): Linear(in_features=1152, out_features=4304, bias=True)
                (act): PytorchGELUTanh()
                (w2): Linear(in_features=4304, out_features=1152, bias=True)
              )
              (attention_norm): LayerNorm((1152,), eps=1e-06, elementwise_affine=True)
              (ffn_norm): LayerNorm((1152,), eps=1e-06, elementwise_affine=True)
            )
          )
        )
      )
    )
  )
  (vision_encoder_head): Linear(in_features=1024, out_features=3584, bias=False)
  (vision_decoder_head): Linear(in_features=3584, out_features=1024, bias=False)
)
2025-07-21 15:54:02.262	g3086:3	train:197	INFO	FSDPMolmo(
  (transformer): Llm(
    (blocks): ModuleList(
      (0-27): 28 x FSDPCheckpointWrapper(
        (_checkpoint_wrapped_module): OLMoSequentialBlock(
          (dropout): Dropout(p=0.1, inplace=False)
          (act): SwiGLU()
          (attn_out): Linear(in_features=3584, out_features=3584, bias=False)
          (ff_out): Linear(in_features=18944, out_features=3584, bias=False)
          (rotary_emb): RotaryEmbedding()
          (attn_norm): RMSLayerNorm()
          (ff_norm): RMSLayerNorm()
          (att_proj): Linear(in_features=3584, out_features=4608, bias=True)
          (ff_proj): Linear(in_features=3584, out_features=37888, bias=False)
        )
      )
    )
    (ln_f): FSDPRMSLayerNorm()
    (emb_drop): Dropout(p=0.0, inplace=False)
    (wte): FSDPEmbedding()
    (ff_out): FSDPLinear(in_features=3584, out_features=152064, bias=False)
  )
  (vision_backbone): FSDPMolmoVisionBackbone(
    (image_pooling_2d): FSDPCheckpointWrapper(
      (_checkpoint_wrapped_module): ViTMultiHeadDotProductAttention(
        (wq): Linear(in_features=2304, out_features=1152, bias=True)
        (wk): Linear(in_features=2304, out_features=1152, bias=True)
        (wv): Linear(in_features=2304, out_features=1152, bias=True)
        (wo): Linear(in_features=1152, out_features=1152, bias=True)
        (residual_dropout): Dropout(p=0.0, inplace=False)
      )
    )
    (image_projector): FSDPCheckpointWrapper(
      (_checkpoint_wrapped_module): ImageProjectorMLP(
        (w1): Linear(in_features=1152, out_features=18944, bias=False)
        (w2): Linear(in_features=18944, out_features=3584, bias=False)
        (w3): Linear(in_features=1152, out_features=18944, bias=False)
        (act): LlamaSwiGLU()
        (dropout): Dropout(p=0.0, inplace=False)
      )
    )
    (image_feature_dropout): Dropout(p=0.0, inplace=False)
    (image_vit): FSDPSiglipVisionTransformer(
      (patch_embedding): Linear(in_features=588, out_features=1152, bias=True)
      (transformer): BlockCollection(
        (resblocks): ModuleList(
          (0-24): 25 x FSDPCheckpointWrapper(
            (_checkpoint_wrapped_module): ResidualAttentionBlock(
              (attention): ViTMultiHeadDotProductAttention(
                (wq): Linear(in_features=1152, out_features=1152, bias=True)
                (wk): Linear(in_features=1152, out_features=1152, bias=True)
                (wv): Linear(in_features=1152, out_features=1152, bias=True)
                (wo): Linear(in_features=1152, out_features=1152, bias=True)
                (residual_dropout): Dropout(p=0.0, inplace=False)
              )
              (feed_forward): ViTMLP(
                (w1): Linear(in_features=1152, out_features=4304, bias=True)
                (act): PytorchGELUTanh()
                (w2): Linear(in_features=4304, out_features=1152, bias=True)
              )
              (attention_norm): LayerNorm((1152,), eps=1e-06, elementwise_affine=True)
              (ffn_norm): LayerNorm((1152,), eps=1e-06, elementwise_affine=True)
            )
          )
        )
      )
    )
  )
  (vision_encoder_head): Linear(in_features=1024, out_features=3584, bias=False)
  (vision_decoder_head): Linear(in_features=3584, out_features=1024, bias=False)
)
2025-07-21 15:54:02.272	g3086:1	olmo.train.optim:178	INFO	Constructing optimizer with 4 param groups
2025-07-21 15:54:02.272	g3086:2	olmo.train.optim:178	INFO	Constructing optimizer with 4 param groups
2025-07-21 15:54:02.272	g3086:3	olmo.train.optim:178	INFO	Constructing optimizer with 4 param groups
2025-07-21 15:54:02.273	g3086:1	olmo.data.data_loader:197	INFO	Loading train dataset depth/train
…
2025-07-21 15:54:02.273	g3086:2	root:34	INFO	Loading depth data from /gscratch/krishna/mahtab/Umolmo/Data/torch_datasets/depth/train/train.json
2025-07-21 15:54:02.273	g3086:3	olmo.data.data_loader:197	INFO	Loading train dataset depth/train
2025-07-21 15:54:02.273	g3086:3	root:34	INFO	Loading depth data from /gscratch/krishna/mahtab/Umolmo/Data/torch_datasets/depth/train/train.json
2025-07-21 15:54:02.263	g3086:0	train:197	INFO	FSDPMolmo(
  (transformer): Llm(
    (blocks): ModuleList(
      (0-27): 28 x FSDPCheckpointWrapper(
        (_checkpoint_wrapped_module): OLMoSequentialBlock(
          (dropout): Dropout(p=0.1, inplace=False)
          (act): SwiGLU()
          (attn_out): Linear(in_features=3584, out_features=3584, bias=False)
          (ff_out): Linear(in_features=18944, out_features=3584, bias=False)
          (rotary_emb): RotaryEmbedding()
          (attn_norm): RMSLayerNorm()
          (ff_norm): RMSLayerNorm()
          (att_proj): Linear(in_features=3584, out_features=4608, bias=True)
          (ff_proj): Linear(in_features=3584, out_features=37888, bias=False)
        )
      )
    )
    (ln_f): FSDPRMSLayerNorm()
    (emb_drop): Dropout(p=0.0, inplace=False)
    (wte): FSDPEmbedding()
    (ff_out): FSDPLinear(in_features=3584, out_features=152064, bias=False)
  )
  (vision_backbone): FSDPMolmoVisionBackbone(
    (image_pooling_2d): FSDPCheckpointWrapper(
      (_checkpoint_wrapped_module): ViTMultiHeadDotProductAttention(
        (wq): Linear(in_features=2304, out_features=1152, bias=True)
        (wk): Linear(in_features=2304, out_features=1152, bias=True)
        (wv): Linear(in_features=2304, out_features=1152, bias=True)
        (wo): Linear(in_features=1152, out_features=1152, bias=True)
        (residual_dropout): Dropout(p=0.0, inplace=False)
      )
    )
    (image_projector): FSDPCheckpointWrapper(
      (_checkpoint_wrapped_module): ImageProjectorMLP(
        (w1): Linear(in_features=1152, out_features=18944, bias=False)
        (w2): Linear(in_features=18944, out_features=3584, bias=False)
        (w3): Linear(in_features=1152, out_features=18944, bias=False)
        (act): LlamaSwiGLU()
        (dropout): Dropout(p=0.0, inplace=False)
      )
    )
    (image_feature_dropout): Dropout(p=0.0, inplace=False)
    (image_vit): FSDPSiglipVisionTransformer(
      (patch_embedding): Linear(in_features=588, out_features=1152, bias=True)
      (transformer): BlockCollection(
        (resblocks): ModuleList(
          (0-24): 25 x FSDPCheckpointWrapper(
            (_checkpoint_wrapped_module): ResidualAttentionBlock(
              (attention): ViTMultiHeadDotProductAttention(
                (wq): Linear(in_features=1152, out_features=1152, bias=True)
                (wk): Linear(in_features=1152, out_features=1152, bias=True)
                (wv): Linear(in_features=1152, out_features=1152, bias=True)
                (wo): Linear(in_features=1152, out_features=1152, bias=True)
                (residual_dropout): Dropout(p=0.0, inplace=False)
              )
              (feed_forward): ViTMLP(
                (w1): Linear(in_features=1152, out_features=4304, bias=True)
                (act): PytorchGELUTanh()
                (w2): Linear(in_features=4304, out_features=1152, bias=True)
              )
              (attention_norm): LayerNorm((1152,), eps=1e-06, elementwise_affine=True)
              (ffn_norm): LayerNorm((1152,), eps=1e-06, elementwise_affine=True)
            )
          )
        )
      )
    )
  )
  (vision_encoder_head): Linear(in_features=1024, out_features=3584, bias=False)
  (vision_decoder_head): Linear(in_features=3584, out_features=1024, bias=False)
)
2025-07-21 15:54:02.284	g3086:0	olmo.train.optim:178	INFO	Constructing optimizer with 4 param groups
2025-07-21 15:54:02.286	g3086:0	olmo.data.data_loader:197	INFO	Loading train dataset depth/train
2025-07-21 15:54:02.286	g3086:0	root:34	INFO	Loading depth data from /gscratch/krishna/mahtab/Umolmo/Data/torch_datasets/depth/train/train.json
2025-07-21 15:54:02.313	g3086:3	olmo.data.data_loader:216	INFO	Sampling rates:
…
