…
2025-06-26 13:51:03.999	g3085:1	train:193	INFO	Peak GPU Memory (MB) after FSDP: 16317
2025-06-26 13:51:04.000	g3085:1	train:194	INFO	Model:
2025-06-26 13:51:04.000	g3085:0	train:190	INFO	Number of non-embedding parameters: 7,573,961,680
2025-06-26 13:51:04.001	g3085:0	train:193	INFO	Peak GPU Memory (MB) after FSDP: 16317
2025-06-26 13:51:04.000	g3085:1	train:195	INFO	FSDPMolmo(
  (transformer): Llm(
    (blocks): ModuleList(
      (0-27): 28 x FSDPCheckpointWrapper(
        (_checkpoint_wrapped_module): OLMoSequentialBlock(
          (dropout): Dropout(p=0.1, inplace=False)
          (act): SwiGLU()
          (attn_out): Linear(in_features=3584, out_features=3584, bias=False)
          (ff_out): Linear(in_features=18944, out_features=3584, bias=False)
          (rotary_emb): RotaryEmbedding()
          (attn_norm): RMSLayerNorm()
          (ff_norm): RMSLayerNorm()
          (att_proj): Linear(in_features=3584, out_features=4608, bias=True)
          (ff_proj): Linear(in_features=3584, out_features=37888, bias=False)
        )
      )
    )
    (ln_f): FSDPRMSLayerNorm()
    (emb_drop): Dropout(p=0.0, inplace=False)
    (wte): FSDPEmbedding()
    (ff_out): FSDPLinear(in_features=3584, out_features=152064, bias=False)
  )
  (vision_backbone): FSDPMolmoVisionBackbone(
    (image_pooling_2d): FSDPCheckpointWrapper(
      (_checkpoint_wrapped_module): ViTMultiHeadDotProductAttention(
        (wq): Linear(in_features=2304, out_features=1152, bias=True)
        (wk): Linear(in_features=2304, out_features=1152, bias=True)
        (wv): Linear(in_features=2304, out_features=1152, bias=True)
        (wo): Linear(in_features=1152, out_features=1152, bias=True)
        (residual_dropout): Dropout(p=0.0, inplace=False)
      )
    )
    (image_projector): FSDPCheckpointWrapper(
      (_checkpoint_wrapped_module): ImageProjectorMLP(
        (w1): Linear(in_features=1152, out_features=18944, bias=False)
        (w2): Linear(in_features=18944, out_features=3584, bias=False)
        (w3): Linear(in_features=1152, out_features=18944, bias=False)
        (act): LlamaSwiGLU()
        (dropout): Dropout(p=0.0, inplace=False)
      )
    )
    (image_feature_dropout): Dropout(p=0.0, inplace=False)
    (image_vit): FSDPSiglipVisionTransformer(
      (patch_embedding): Linear(in_features=588, out_features=1152, bias=True)
      (transformer): BlockCollection(
        (resblocks): ModuleList(
          (0-24): 25 x FSDPCheckpointWrapper(
            (_checkpoint_wrapped_module): ResidualAttentionBlock(
              (attention): ViTMultiHeadDotProductAttention(
                (wq): Linear(in_features=1152, out_features=1152, bias=True)
                (wk): Linear(in_features=1152, out_features=1152, bias=True)
                (wv): Linear(in_features=1152, out_features=1152, bias=True)
                (wo): Linear(in_features=1152, out_features=1152, bias=True)
                (residual_dropout): Dropout(p=0.0, inplace=False)
              )
              (feed_forward): ViTMLP(
                (w1): Linear(in_features=1152, out_features=4304, bias=True)
                (act): PytorchGELUTanh()
                (w2): Linear(in_features=4304, out_features=1152, bias=True)
              )
              (attention_norm): LayerNorm((1152,), eps=1e-06, elementwise_affine=True)
              (ffn_norm): LayerNorm((1152,), eps=1e-06, elementwise_affine=True)
            )
          )
        )
      )
    )
  )
)
2025-06-26 13:51:04.002	g3085:0	train:194	INFO	Model:
2025-06-26 13:51:04.008	g3085:1	olmo.train.optim:167	INFO	Constructing optimizer with 3 param groups
2025-06-26 13:51:04.009	g3085:1	olmo.data.data_loader:197	INFO	Loading train dataset chart_qa/train
2025-06-26 13:51:04.009	g3085:1	root:437	INFO	Loading chartqa data from /gscratch/krishna/mahtab/Umolmo/Data/torch_datasets/chartqa/train/train_human.json
2025-06-26 13:51:04.002	g3085:0	train:195	INFO	FSDPMolmo(
  (transformer): Llm(
    (blocks): ModuleList(
      (0-27): 28 x FSDPCheckpointWrapper(
        (_checkpoint_wrapped_module): OLMoSequentialBlock(
          (dropout): Dropout(p=0.1, inplace=False)
          (act): SwiGLU()
          (attn_out): Linear(in_features=3584, out_features=3584, bias=False)
          (ff_out): Linear(in_features=18944, out_features=3584, bias=False)
          (rotary_emb): RotaryEmbedding()
          (attn_norm): RMSLayerNorm()
          (ff_norm): RMSLayerNorm()
          (att_proj): Linear(in_features=3584, out_features=4608, bias=True)
          (ff_proj): Linear(in_features=3584, out_features=37888, bias=False)
        )
      )
    )
    (ln_f): FSDPRMSLayerNorm()
    (emb_drop): Dropout(p=0.0, inplace=False)
    (wte): FSDPEmbedding()
    (ff_out): FSDPLinear(in_features=3584, out_features=152064, bias=False)
  )
  (vision_backbone): FSDPMolmoVisionBackbone(
    (image_pooling_2d): FSDPCheckpointWrapper(
      (_checkpoint_wrapped_module): ViTMultiHeadDotProductAttention(
        (wq): Linear(in_features=2304, out_features=1152, bias=True)
        (wk): Linear(in_features=2304, out_features=1152, bias=True)
        (wv): Linear(in_features=2304, out_features=1152, bias=True)
        (wo): Linear(in_features=1152, out_features=1152, bias=True)
        (residual_dropout): Dropout(p=0.0, inplace=False)
      )
    )
    (image_projector): FSDPCheckpointWrapper(
      (_checkpoint_wrapped_module): ImageProjectorMLP(
        (w1): Linear(in_features=1152, out_features=18944, bias=False)
        (w2): Linear(in_features=18944, out_features=3584, bias=False)
        (w3): Linear(in_features=1152, out_features=18944, bias=False)
        (act): LlamaSwiGLU()
        (dropout): Dropout(p=0.0, inplace=False)
      )
    )
    (image_feature_dropout): Dropout(p=0.0, inplace=False)
    (image_vit): FSDPSiglipVisionTransformer(
      (patch_embedding): Linear(in_features=588, out_features=1152, bias=True)
      (transformer): BlockCollection(
        (resblocks): ModuleList(
          (0-24): 25 x FSDPCheckpointWrapper(
            (_checkpoint_wrapped_module): ResidualAttentionBlock(
              (attention): ViTMultiHeadDotProductAttention(
                (wq): Linear(in_features=1152, out_features=1152, bias=True)
                (wk): Linear(in_features=1152, out_features=1152, bias=True)
                (wv): Linear(in_features=1152, out_features=1152, bias=True)
                (wo): Linear(in_features=1152, out_features=1152, bias=True)
                (residual_dropout): Dropout(p=0.0, inplace=False)
              )
              (feed_forward): ViTMLP(
                (w1): Linear(in_features=1152, out_features=4304, bias=True)
                (act): PytorchGELUTanh()
                (w2): Linear(in_features=4304, out_features=1152, bias=True)
              )
              (attention_norm): LayerNorm((1152,), eps=1e-06, elementwise_affine=True)
              (ffn_norm): LayerNorm((1152,), eps=1e-06, elementwise_affine=True)
            )
          )
        )
      )
    )
  )
)
2025-06-26 13:51:04.020	g3085:0	olmo.train.optim:167	INFO	Constructing optimizer with 3 param groups
2025-06-26 13:51:04.021	g3085:0	olmo.data.data_loader:197	INFO	Loading train dataset chart_qa/train
2025-06-26 13:51:04.022	g3085:0	root:437	INFO	Loading chartqa data from /gscratch/krishna/mahtab/Umolmo/Data/torch_datasets/chartqa/train/train_human.json
…
2025-06-26 13:53:47.196	g3085:1	train:189	INFO	Total number of parameters: 8,119,417,808
2025-06-26 13:53:47.198	g3085:1	train:190	INFO	Number of non-embedding parameters: 7,573,961,680
2025-06-26 13:53:47.198	g3085:1	train:193	INFO	Peak GPU Memory (MB) after FSDP: 16317
2025-06-26 13:53:47.199	g3085:1	train:194	INFO	Model:
2025-06-26 13:53:47.199	g3085:1	train:195	INFO	FSDPMolmo(
  (transformer): Llm(
    (blocks): ModuleList(
      (0-27): 28 x FSDPCheckpointWrapper(
        (_checkpoint_wrapped_module): OLMoSequentialBlock(
          (dropout): Dropout(p=0.1, inplace=False)
          (act): SwiGLU()
          (attn_out): Linear(in_features=3584, out_features=3584, bias=False)
          (ff_out): Linear(in_features=18944, out_features=3584, bias=False)
          (rotary_emb): RotaryEmbedding()
          (attn_norm): RMSLayerNorm()
          (ff_norm): RMSLayerNorm()
          (att_proj): Linear(in_features=3584, out_features=4608, bias=True)
          (ff_proj): Linear(in_features=3584, out_features=37888, bias=False)
        )
      )
    )
    (ln_f): FSDPRMSLayerNorm()
    (emb_drop): Dropout(p=0.0, inplace=False)
    (wte): FSDPEmbedding()
    (ff_out): FSDPLinear(in_features=3584, out_features=152064, bias=False)
  )
  (vision_backbone): FSDPMolmoVisionBackbone(
    (image_pooling_2d): FSDPCheckpointWrapper(
      (_checkpoint_wrapped_module): ViTMultiHeadDotProductAttention(
        (wq): Linear(in_features=2304, out_features=1152, bias=True)
        (wk): Linear(in_features=2304, out_features=1152, bias=True)
        (wv): Linear(in_features=2304, out_features=1152, bias=True)
        (wo): Linear(in_features=1152, out_features=1152, bias=True)
        (residual_dropout): Dropout(p=0.0, inplace=False)
      )
    )
    (image_projector): FSDPCheckpointWrapper(
      (_checkpoint_wrapped_module): ImageProjectorMLP(
        (w1): Linear(in_features=1152, out_features=18944, bias=False)
        (w2): Linear(in_features=18944, out_features=3584, bias=False)
        (w3): Linear(in_features=1152, out_features=18944, bias=False)
        (act): LlamaSwiGLU()
        (dropout): Dropout(p=0.0, inplace=False)
      )
    )
    (image_feature_dropout): Dropout(p=0.0, inplace=False)
    (image_vit): FSDPSiglipVisionTransformer(
      (patch_embedding): Linear(in_features=588, out_features=1152, bias=True)
      (transformer): BlockCollection(
        (resblocks): ModuleList(
          (0-24): 25 x FSDPCheckpointWrapper(
            (_checkpoint_wrapped_module): ResidualAttentionBlock(
              (attention): ViTMultiHeadDotProductAttention(
                (wq): Linear(in_features=1152, out_features=1152, bias=True)
                (wk): Linear(in_features=1152, out_features=1152, bias=True)
                (wv): Linear(in_features=1152, out_features=1152, bias=True)
                (wo): Linear(in_features=1152, out_features=1152, bias=True)
                (residual_dropout): Dropout(p=0.0, inplace=False)
              )
              (feed_forward): ViTMLP(
                (w1): Linear(in_features=1152, out_features=4304, bias=True)
                (act): PytorchGELUTanh()
                (w2): Linear(in_features=4304, out_features=1152, bias=True)
              )
              (attention_norm): LayerNorm((1152,), eps=1e-06, elementwise_affine=True)
              (ffn_norm): LayerNorm((1152,), eps=1e-06, elementwise_affine=True)
            )
          )
        )
      )
    )
  )
)
2025-06-26 13:53:47.204	g3085:0	train:189	INFO	Total number of parameters: 8,119,417,808
2025-06-26 13:53:47.206	g3085:0	train:190	INFO	Number of non-embedding parameters: 7,573,961,680
2025-06-26 13:53:47.207	g3085:1	olmo.train.optim:167	INFO	Constructing optimizer with 3 param groups
2025-06-26 13:53:47.207	g3085:0	train:193	INFO	Peak GPU Memory (MB) after FSDP: 16317
…
2025-06-26 14:15:14.588	g3085:0	train:189	INFO	Total number of parameters: 57,810,304
2025-06-26 14:15:14.589	g3085:0	train:190	INFO	Number of non-embedding parameters: 38,329,728
2025-06-26 14:15:14.590	g3085:0	train:193	INFO	Peak GPU Memory (MB) after FSDP: 233
2025-06-26 14:15:14.590	g3085:0	train:194	INFO	Model:
2025-06-26 14:15:14.590	g3085:0	train:195	INFO	FSDPMolmo(
  (transformer): Llm(
    (blocks): ModuleList(
      (0): FSDPCheckpointWrapper(
        (_checkpoint_wrapped_module): OLMoSequentialBlock(
          (dropout): Dropout(p=0.1, inplace=False)
          (act): SwiGLU()
          (attn_out): Linear(in_features=128, out_features=128, bias=True)
          (ff_out): Linear(in_features=256, out_features=128, bias=True)
          (rotary_emb): RotaryEmbedding()
          (attn_norm): LayerNorm()
          (ff_norm): LayerNorm()
          (att_proj): Linear(in_features=128, out_features=384, bias=True)
          (ff_proj): Linear(in_features=128, out_features=512, bias=True)
        )
      )
    )
    (ln_f): FSDPLayerNorm()
    (emb_drop): Dropout(p=0.1, inplace=False)
    (wte): FSDPEmbedding()
    (ff_out): FSDPLinear(in_features=128, out_features=152064, bias=True)
  )
  (vision_backbone): FSDPMolmoVisionBackbone(
    (image_pooling_2d): FSDPCheckpointWrapper(
      (_checkpoint_wrapped_module): ViTMultiHeadDotProductAttention(
        (wq): Linear(in_features=1024, out_features=1024, bias=True)
        (wk): Linear(in_features=1024, out_features=1024, bias=True)
        (wv): Linear(in_features=1024, out_features=1024, bias=True)
        (wo): Linear(in_features=1024, out_features=1024, bias=True)
        (residual_dropout): Dropout(p=0.0, inplace=False)
      )
    )
    (image_projector): FSDPCheckpointWrapper(
      (_checkpoint_wrapped_module): ImageProjectorMLP(
        (w1): Linear(in_features=1024, out_features=256, bias=False)
        (w2): Linear(in_features=256, out_features=128, bias=False)
        (w3): Linear(in_features=1024, out_features=256, bias=False)
        (act): LlamaSwiGLU()
        (dropout): Dropout(p=0.0, inplace=False)
      )
    )
    (image_feature_dropout): Dropout(p=0.0, inplace=False)
    (image_vit): FSDPVisionTransformer(
      (patch_embedding): Linear(in_features=588, out_features=1024, bias=False)
      (pre_ln): LayerNorm((1024,), eps=1e-05, elementwise_affine=True)
      (transformer): BlockCollection(
        (resblocks): ModuleList(
          (0): FSDPResidualAttentionBlock(
            (attention): ViTMultiHeadDotProductAttention(
              (wq): Linear(in_features=1024, out_features=1024, bias=True)
              (wk): Linear(in_features=1024, out_features=1024, bias=True)
              (wv): Linear(in_features=1024, out_features=1024, bias=True)
              (wo): Linear(in_features=1024, out_features=1024, bias=True)
              (residual_dropout): Dropout(p=0.0, inplace=False)
            )
            (feed_forward): ViTMLP(
              (w1): Linear(in_features=1024, out_features=4096, bias=True)
              (act): GELUActivation()
              (w2): Linear(in_features=4096, out_features=1024, bias=True)
            )
            (attention_norm): LayerNorm((1024,), eps=1e-05, elementwise_affine=True)
            (ffn_norm): LayerNorm((1024,), eps=1e-05, elementwise_affine=True)
          )
        )
      )
    )
  )
)
2025-06-26 14:15:14.599	g3085:0	olmo.train.optim:167	INFO	Constructing optimizer with 3 param groups
2025-06-26 14:15:14.600	g3085:0	olmo.data.data_loader:197	INFO	Loading train dataset chart_qa/train
2025-06-26 14:15:14.600	g3085:0	root:437	INFO	Loading chartqa data from /gscratch/krishna/mahtab/Umolmo/Data/torch_datasets/chartqa/train/train_human.json
…
